data.pth (torch, 5631 bytes, 6 tensors)

l1.weight f4 [8, 65]
00000000: 0190 463f eb19 87bd 9d4f 54bd 059e 0b3f
00000010: 241c afbd 21e1 2d3e 1f41 503e e96c 903e
00000020: 3b17 2f3f 5c38 12be 9764 38be e405 24bc
00000030: 6c1f 12be ab05 8cbe 4e2d 213f 2b71 0bbe
00000040: f4e5 2fbe e6d5 fd3e 1b47 a7bd a98e c73c
00000050: 1950 8bbe 256d 8bbe a34b 063f 7dd7 bfbe
00000060: 6f82 0a3f a9b6 163f 3770 063c 02c7 a9bd
00000070: bd50 5cbe 1957 c03d b837 2d3f e80c 3c3f
00000080: 8a57 253f ca3a 2f3f 70a5 ea3e cd7f a4be
00000090: 3ca8 77be fad7 81be 641a 02be ecbe b33e
000000a0: 2445 9ebd 573f 76be a491 20be 8751 833d
000000b0: ee0d 7ebe dda6 bd3e 9fcb 8cbe b43d babd
000000c0: 59e7 79be 5e6e 7abe 7409 bc3d c10c 9ebe
000000d0: ab23 563c e1aa d03d 6b06 81bb c4c6 9f3f
000000e0: f42e 223f fe8d 02bf eadc b03e 5a3a 6fbc
000000f0: dd8a b43d 7fc9 c8bd 9df3 fdbd 9470 90bd
00000100: b1d0 093f d290 07bd 98a3 f63c 68bd ad3d
00000110: 4216 57bd eb1f e33c 982c dcbd 54be 29bd
00000120: 68d0 993c 94e0 55bd d199 f7bd 74a6 eabd
00000130: 4e86 8a3d f2e4 d0bd cb9f 5cbc cf85 9abd
00000140: 28e0 ebbd 3293 1dbd 145c c9bc 8355 7a3d
00000150: 87e3 1e3d 5059 d8bd 2678 a6bd fabc d8bd
00000160: 622e d0bd a4e7 af3d d36a 433d 1226 88bd
00000170: 408b 08bd b4ef d63d beed 43bd 95d8 c4bd
00000180: 2811 2b3c 845e dfbc e402 0a3d f812 1cbc
00000190: 6de7 01be 530a 9cbd 1467 9fbc 62c5 e03d
000001a0: fcbf 883d c359 09be cb1e ebbd c0eb a3bd
000001b0: fe78 343d 18f5 5e3d f63d be3d 9863 b73d
000001c0: c0a2 b4bc f3b5 763d 4ff1 fabd a8f1 8ebd
000001d0: 9d66 69bc a9c6 c43c d2af d13d 2547 9cbd
000001e0: 3cea 41bd a78a 8d3d 11a7 4e3d 98b1 cbbc
000001f0: 2034 f83b 446e 56bd c479 843d 0a1a 77bd
00000200: d079 a4bb 5028 cbbd 2f01 7bbd b3f6 b0bd
00000210: b5b5 0b3e 2288 db3a d5e5 5d3e 9ae1 f63c
00000220: 008d 273f 7c70 74be 37ab b8be 6644 6e3e
00000230: 00d2 cfbc 2f3b 0cbd e8aa 533f c555 b63e
00000240: f05b 78bd 07a4 6f3e 594e a1bd 5fd8 873c
00000250: 9a77 de3e a453 0a3f e66a 923e 51e6 debe
00000260: ec06 be3a 4e07 933e 4766 f5bd 88f3 acbe
00000270: 2c59 553f a865 a43e f44b 9f3e cd4d 8bbd
00000280: 1192 d2be ca7c 62bd 9b46 b4be aa0a a8be
00000290: dd24 dd3d 608a 7b3e e152 733d 9895 1e3e
000002a0: 734b 253f ed83 01be 6bdb 003f bd31 8a3d
000002b0: 4862 983e 3242 133f 3839 cb3e 8b6c 0ebe
000002c0: 7391 01bf e7dd fbbd c4df 663f 8161 a73e
000002d0: 439e 283f da92 603f 9f46 f13e da5a 733a
000002e0: 2390 b13e a297 b0be 1672 5ebd d57e 0c3f
000002f0: 8c5c 6dbe 8f66 ef3c a0a3 c73d 527f 343e
00000300: ad3d 2d3e 4505 12be fd5d ec3d 9b18 f93d
00000310: f49e bf3e 148a c83d d1ee c83e 783b 323f
00000320: 91d1 58be 6f18 2abf ef57 923e 3c19 69bd
00000330: c4d8 cfbc 8341 c43e b5c7 013f ea8d 5a3f
00000340: 34e2 e43e 8a72 11bf b0a1 103d 772b f53e
00000350: 778c 083f 8e00 ff3e 4366 a6be 4bcd cbbc
00000360: 4846 5b3f 3173 903d 0727 163e 17d5 13bf
00000370: c586 b43e 48d7 653f 5e88 70bd ce75 023e
00000380: 57d7 dd3e 7096 0c3f 1a57 0c3e 17c0 083f
00000390: fec1 d03e 46d7 013f 96e1 0a3f 0b3e 433f
000003a0: 06e8 0c3f 1196 dc3e 25b2 f13e 6b60 253f
000003b0: e4d8 c43e 9c66 8bbd 685f a6be 3052 093e
000003c0: fe71 28be f84d 163f aaa4 fd3e 7da9 653f
000003d0: 01ea f43d c077 0e3f 457a 4f3f c485 003f
000003e0: e265 963e c151 2a3f 351b a9be 3ab1 203e
000003f0: bece 8e3f b7f7 803e 5c1c 0b3f 8a86 d93e
0.7756348 -0.0659674 -0.051833738 0.54537994 -0.08550289 0.16980411 0.20337342 0.28208092
0.6839482 -0.14279312 -0.18007122 -0.01001117 -0.14269799 -0.27348074 0.62959754 -0.13617389
-0.17177564 0.49577254 -0.08167859 0.024360018 -0.27209547 -0.27231708 0.5245916 -0.37469092
0.54105276 0.5887247 0.008205465 -0.08289911 -0.21515174 0.093916126 0.67663145 0.73457193
0.645867 0.6844908 0.45829344 -0.32128754 -0.2418527 -0.2536009 -0.1270538 0.351066
-0.07728031 -0.240476 -0.15680557 0.064120345 -0.24810001 0.3704137 -0.274991 -0.090938
-0.24404658 -0.24456164 0.091814905 -0.30869105 0.013070027 0.101888426 -0.0039375327 1.2482533
0.63352895 -0.5099791 0.34543544 -0.014601314 0.088155486 -0.09804057 -0.12399981 -0.070527226
0.5383406 -0.033097096 0.030107304 0.08483392 -0.05251146 0.02772518 -0.10750693 -0.041441277
0.018776134 -0.052216128 -0.12089885 -0.1145753 0.06763898 -0.10199918 -0.013465832 -0.07545053
-0.11517364 -0.038470455 -0.02458004 0.061116707 0.038791206 -0.1056391 -0.08128385 -0.105829194
-0.10165097 0.08589104 0.047709297 -0.06647886 -0.033335924 0.104949385 -0.04783415 -0.09611622
0.010441102 -0.027266748 0.033694163 -0.009526007 -0.12685938 -0.07619157 -0.019458331 0.10975148
0.06677243 -0.13413148 -0.11480483 -0.0800395 0.0440607 0.05443296 0.09289162 0.08954543
-0.022050261 0.060232114 -0.12253057 -0.06979686 -0.014245656 0.02402051 0.10238613 -0.07630757
-0.047342524 0.069112115 0.050452296 -0.024864957 0.007574573 -0.05235125 0.064685374 -0.060327567
-0.005019404 -0.099197984 -0.061280426 -0.08640804 0.13643534 0.0016748945 0.21669705 0.030136872
0.65449524 -0.23871034 -0.36068127 0.2326828 -0.02536869 -0.03423613 0.8268266 0.35612312
-0.060634553 0.23402415 -0.07876272 0.016582666 0.43450624 0.54033875 0.28597182 -0.43535092
0.0014497912 0.2871651 -0.119823985 -0.3377955 0.8333919 0.32108808 0.31112635 -0.06801949
-0.41127065 -0.05529479 -0.35210118 -0.32820636 0.10798047 0.24564505 0.05940521 0.15486753
0.6456825 -0.12647982 0.50334805 0.06747768 0.29762483 0.5752288 0.39692092 -0.13908593
-0.5061256 -0.12298184 0.9018519 0.32691577 0.6586649 0.8772408 0.47124192 0.00092832523
0.3468028 -0.34490687 -0.05430802 0.5488103 -0.23179835 0.029223708 0.09748006 0.17626694
0.16918059 -0.14259823 0.11541364 0.12162896 0.3742596 0.09791961 0.39244702 0.6962199
-0.21173693 -0.6644353 0.28582713 -0.05690883 -0.025371917 0.3833123 0.50695354 0.85372794
0.4470383 -0.568154 0.035310447 0.47884724 0.5333933 0.4980511 -0.32499894 -0.024878165
0.85654116 0.07053221 0.14663325 -0.57747024 0.3525907 0.8978162 -0.0587238 0.12740251
0.43328354 0.5491705 0.13705102 0.53418106 0.40773004 0.50719106 0.54250467 0.76266545
0.5504154 0.43083242 0.47206226 0.6460025 0.38446724 -0.068066806 -0.32494664 0.13410258
-0.16449735 0.5871272 0.4953969 0.89711744 0.11958695 0.55651474 0.81045943 0.5020411
0.29374605 0.66530997 -0.3302857 0.15692607 1.1156843 0.2518899 0.5434015 0.42485458

l1.bias f4 [8]
00000000: 4980 9b3f 76f3 6bbd f584 d23e c947 7d3f
00000010: 842c e23e 7b37 213f 5d17 613f 6930 503f
1.2148525 -0.05760523 0.41117063 0.9893766 0.44174588 0.6297528 0.87926275 0.8132387

l2.weight f4 [8, 8]
00000000: ef4b 323f 00db 91be 01e8 1f3e eec1 983f
00000010: 0fbf b5bf 172c 36be b597 623f 6f49 27bf
00000020: bef7 9fbf f7d5 e73d 3a13 133f e397 983f
00000030: 7a25 4e3f d716 c83f 68e2 793f e520 11bf
00000040: 177b 5dbe 3328 4fbe 719e a2be e015 6c3d
00000050: 521e 19be 7a61 333e 1090 65be 3212 48be
00000060: 348c ad3f e1a4 b53d 9fce a0bf c482 0d3f
00000070: 4e18 1b3f 3f1a 05bf 22bd 693f 8655 93bd
00000080: 05c6 4d3f 2686 77be b889 983f 5ecb 2c3e
00000090: c024 b6bd 9dc5 9e3f b39b 6ebf 8951 ca3f
000000a0: 56b1 a33f b223 21be 5990 25bf a3d9 4bbf
000000b0: b39d 9a3f 0855 2dbf 8766 2e3f 1075 4a3f
000000c0: eceb 19be 0811 053d 6841 11be 37e6 8f3d
000000d0: 54b7 11be 3bbc acbe c454 273d 2873 d9bd
000000e0: 710a 4f3e f70c 5abe 61dd f8bd 1f18 b8bd
000000f0: a98a cbbe 32e0 a0be 5afa 66bc 0aad 00bd
0.69647115 -0.28487396 0.15615846 1.1934183 -1.4198931 -0.17790256 0.88512737 -0.65346426
-1.249748 0.113201074 0.5745121 1.1921352 0.80525935 1.563197 0.97611094 -0.5669082
-0.21628986 -0.20230179 -0.31761506 0.05763805 -0.14952973 0.17517653 -0.22418237 -0.19538191
1.3558412 0.08869339 -1.2563056 0.5527766 0.6058396 -0.51993173 0.9130422 -0.07194047
0.8038028 -0.24172267 1.1917028 0.16874453 -0.08893728 1.2404057 -0.9320633 1.5806133
1.2788494 -0.15736273 -0.6467338 -0.7962896 1.2079376 -0.6770787 0.68125194 0.79084873
-0.15031403 0.032486945 -0.14185107 0.07026332 -0.1423009 -0.33737358 0.040852323 -0.106176674
0.20218827 -0.21294008 -0.121516 -0.08988976 -0.39754227 -0.31421047 -0.014097774 -0.031415023

l2.bias f4 [8]
00000000: 430b 3e3f a4cf df3e c81c 95bd e5b9 003f
00000010: 2509 513f 4b44 c63e de10 a2be 475c 2ebe
0.74235934 0.43713105 -0.0728088 0.5028365 0.8165458 0.38723978 -0.31653494 -0.17027389

l3.weight f4 [9, 8]
00000000: 1521 49bf 9055 fa3e 00de 8f3c 65c8 36be
00000010: 9a1e 04bf 0418 bcbe 4910 24be a124 b1be
00000020: 7af0 94bf 4219 38bf 90e8 48bd 9de1 163f
00000030: f2e1 8ebf dbd2 c03e 37aa 003e fa2d 67be
00000040: 6017 cabf 3129 193f 8cca 133e ea47 a2bf
00000050: ae1e ac3c 3b55 cabf 4574 8f3e edd2 9d3e
00000060: cef1 063f 1994 b73e 5810 59bd 9245 0dbf
00000070: 3f66 11bf ca4c 81bf 4f9d 823d 09f3 38be
00000080: 46ee d83e 82d3 ab3e 410a b23e 1bbc fb3e
00000090: 85a2 d2bf 1aae debf 64fb 67bd 5d92 f1bd
000000a0: 003d f9bd 05fb adbd 0844 3cbd a202 13bf
000000b0: 9ee6 1a3f b4c5 c9bf 1dfd b6be 9c60 7f3e
000000c0: 935b 3d3f 7db7 debe 1f2e 3abe 429a 513f
000000d0: e3d4 8abf 280d c9be afb5 223e 9143 2ebe
000000e0: 817d 50bf 39e9 e5bf 8579 96be aeee 0fc0
000000f0: 8aa1 593f 1c65 233e fcb0 a0bc 6fbe 963e
00000100: eeed 59bf f8c4 98bf 1541 893e 627f 4e3e
00000110: 1050 483e cd6e d43d 37a0 93bc 2362 763e
-0.78566104 0.48893404 0.017561913 -0.17849882 -0.51609194 -0.36737072 -0.16021837 -0.34598258
-1.1635888 -0.7191354 -0.049049914 0.5893801 -1.1162703 0.3766087 0.12564932 -0.22576132
-1.5788383 0.5982848 0.14432734 -1.2678196 0.021010723 -1.580726 0.28018394 0.30824986
0.52712715 0.35855177 -0.052994102 -0.5518428 -0.5679664 -1.0101559 0.063776605 -0.1806146
0.42369288 0.33559805 0.34773448 0.4916695 -1.6455847 -1.7396882 -0.05663623 -0.11795495
-0.12169838 -0.08495144 -0.045963317 -0.5742589 0.60508144 -1.5763459 -0.35739985 0.24939197
0.73967856 -0.43499365 -0.18181656 0.81876004 -1.0846218 -0.3926785 0.1588962 -0.17017962
-0.81441504 -1.7961799 -0.29389587 -2.2489429 0.85012114 0.15956539 -0.019615643 0.29442164
-0.85128677 -1.193511 0.26807466 0.2016578 0.19561791 0.10372696 -0.018020732 0.24060874

l3.bias f4 [9]
00000000: 5931 3d3d 9b12 aabe 316b 9a3e e4bc 82be
00000010: 2bc3 8cbe a529 ee3e 5a55 6f3d d175 9c3e
00000020: 4c8d b83e
0.04618964 -0.3321732 0.30159906 -0.25534737 -0.2749265 0.46516147 0.058431007 0.30558637
0.360453
