data.pth (torch, 9663 bytes, 6 tensors)

l1.weight f4 [8, 129]
000000 e0 65 26 3f f4 44 1d 3f 4b c1 42 bf c8 45 13 bd
       0.649992 0.6143334 -0.7607619 -0.03595522
000010 d2 c3 fb 3d a9 55 05 3d 3c 37 ee bd 2b 5f ca 3e
       0.12293209 0.032552395 -0.11631629 0.39525732
000020 99 52 05 3e 2a a6 95 3f d8 ee 21 3f a7 fe 4c 3f
       0.1301979 1.1691334 0.6325507 0.8007607
000030 73 10 df be 1e e2 5c bf 5d 8b 69 3f 5c 07 94 be
       -0.43567237 -0.8628253 0.91228276 -0.28911865
000040 a1 9e 18 bf a4 be 98 be a1 4c 0a bd e5 77 ce be
       -0.5961705 -0.29832947 -0.033764485 -0.40325847
000050 41 ac 00 3f 8e 4c 87 3c 90 28 85 bf 89 55 57 3f
       0.5026284 0.016515996 -1.0403004 0.8411489
000060 65 7b 24 3f db e1 76 3f 47 cf 1f 3f 52 28 6a bd
       0.64250785 0.9643838 0.62425655 -0.05716736
000070 2c 6c 87 bf a4 90 8e 3d f7 87 8f 3d 00 cc d0 bd
       -1.0579886 0.06961182 0.07008355 -0.1019516
000080 6e cc 6d be ae 58 b4 3e ee 59 02 3f d7 03 68 3f
       -0.23222515 0.35223907 0.5091847 0.9063086
000090 48 2a e2 3e 89 ab 3e 3f 2a 5e 92 be a8 df 7c bd
       0.44172883 0.7448049 -0.28587466 -0.061736733
0000a0 b3 ea 04 3f ab f5 7a 3f 2c 09 96 3e 2e 18 80 3f
       0.5192062 0.9803111 0.29303873 1.0007379
0000b0 db c3 85 3f 21 0f 4d 3f 1f 8a 3f 3f 36 3e c3 3e
       1.0450395 0.8010121 0.7482013 0.381334
0000c0 72 6a 10 bf 52 87 67 3f f6 f3 72 bf f8 5c 17 3f
       -0.5641242 0.9044086 -0.94903505 0.59126234
0000d0 8f a9 a0 bd 4d f8 5f 3e da 0b 97 bf 3b 5c 67 3f
       -0.07844841 0.21872063 -1.1800492 0.9037511
0000e0 24 81 51 bf 37 d9 d7 bd b2 d9 98 3f f1 a2 82 3e
       -0.8183768 -0.10539477 1.1941435 0.2551494
0000f0 3c 9c 29 3f 49 13 5b bf 66 63 99 3f e8 5c 69 be
       0.6625402 -0.855763 1.1983459 -0.22789347
000100 0b 9b 76 3f 76 84 03 bf 77 bb 2e 3d 4a 86 03 bf
       0.96330327 -0.51373994 0.04265925 -0.51376784
000110 0f 97 03 bf 13 98 a2 bd 37 1f 9e bf 14 7c 37 bf
       -0.5140237 -0.07939162 -1.2353276 -0.71673703
000120 9b dd 1a 3f 86 73 27 3f a8 81 69 3f 8b 8b 82 3f
       0.60494393 0.6541065 0.91213465 1.0198835
000130 40 88 46 3f 58 22 53 3d 6d e3 02 3f 24 e0 80 3f
       0.7755165 0.051546425 0.51128274 1.0068402
000140 c4 1f 17 3f 92 0c 99 bd a6 5d d3 bd 13 b8 30 bf
       0.59032845 -0.07473101 -0.103205964 -0.69030875
000150 20 fb d3 3f fe 63 71 bf 4b b5 da 3e 47 04 43 3f
       1.6561012 -0.942932 0.4271644 0.761784
000160 27 cc 98 be 73 12 d4 bd 3e 71 00 3f 71 b0 f9 3e
       -0.29843256 -0.103550814 0.50172794 0.48767427
000170 cf dc 3d 3f d2 ab 29 3f 7f 39 96 3f be 7b 31 3f
       0.7416505 0.662778 1.1736296 0.6932944
000180 33 f0 f7 be fa 10 a2 3d 52 36 0f 3f eb d3 35 3f
       -0.48425445 0.07913394 0.5594226 0.71026486
000190 4b 03 1c bf 50 4d 66 3f 47 fa 06 be 4f 46 0e bf
       -0.60942525 0.8996172 -0.1318141 -0.5557603
0001a0 7b 6d 8a 3f 24 2a 6e bd 97 44 e3 3b 78 65 02 3f
       1.0814661 -0.058145657 0.006935667 0.5093608
0001b0 a8 1a 3b be ff 95 e5 be 64 81 ee bd 8e 7a 03 bf
       -0.18271887 -0.44841 -0.11645773 -0.5135888
0001c0 2a 77 dc bd de 80 d1 3e 40 5f c6 3e 4b 1b ab 3e
       -0.10764916 0.4091863 0.38744545 0.3341926
0001d0 21 21 26 3f 8a f8 79 be 96 48 92 3d a5 0d eb 3e
       0.648943 -0.24411216 0.07142751 0.45908847
0001e0 32 ba 20 bd 59 3a 7f 3f 38 15 fb be 84 b1 28 be
       -0.03924007 0.99698406 -0.49039626 -0.16473967
0001f0 3b 76 bc 3e 67 1e 83 bd f1 ea c9 be 4a 31 e4 3e
       0.36808953 -0.06402283 -0.3943706 0.44568855
000200 f1 8f 0b bf a5 1b 3d 3f b2 f3 26 3f 4c 49 aa 3e
       -0.5451651 0.7387031 0.652156 0.33259046
000210 4d 22 30 3f 08 06 29 3f 89 70 1e be f3 f9 83 3e
       0.6880234 0.6602483 -0.15472616 0.25776634
000220 54 66 cc be a2 de 57 3f b1 33 c4 be a5 c1 ad bf
       -0.3992182 0.84324086 -0.38320687 -1.3574721
000230 ad 1f f6 3e db f3 b7 be 12 aa 39 3f 82 d6 8a 3f
       0.48071042 -0.35928234 0.7252513 1.0846713
000240 ea 98 a0 be dc be c6 be 72 18 12 3e ea 13 4d 3e
       -0.31366664 -0.3881749 0.14267138 0.20027128
000250 78 d9 03 3f 6f c6 30 3f 4c 46 7c bf c0 ed 77 3f
       0.51503706 0.69052786 -0.98544765 0.9684715
000260 86 fa 29 bf 48 49 0e bf c0 c7 b2 3e 57 65 99 3b
       -0.66397893 -0.5558057 0.34918022 0.00468127
000270 e6 e0 08 3f 8b a7 da be ee c2 27 bd b9 64 a4 3f
       0.5346817 -0.4270595 -0.040957384 1.2843238
000280 1a 67 22 3d e8 bc 23 3f d9 e8 1c bf 9e 6c 85 3f
       0.039649107 0.63960123 -0.612928 1.0423772
000290 df af 58 3f 79 0a 5f bf 83 32 1d 3f 1b c2 78 be
       0.8464336 -0.87125355 0.614052 -0.24292795
0002a0 00 ed b1 3f 82 04 2c 3f 35 c9 61 be 5f c6 2d 3e
       1.3900452 0.6719438 -0.2204941 0.16970204
0002b0 0c c8 9f bf d1 24 ab 3f 9a 55 85 3f c4 cd 29 bf
       -1.2482924 1.337061 1.0416749 -0.663296
0002c0 65 ed ca 3e 2a 21 35 3f 6f 1a 6b bf e8 9f 44 3f
       0.39634243 0.7075373 -0.9183721 0.768065
0002d0 ca fc c2 3f c8 ed fd 3e a6 36 e7 3e c8 c7 85 3f
       1.5233395 0.49595475 0.4515888 1.0451593
0002e0 dd 13 1b 3e b7 af 1b 3f 58 b0 ba 3e cd 37 4e 3f
       0.15144296 0.60814995 0.36462665 0.80553895
0002f0 aa 11 d4 bd 86 24 3f 3f 3e 8b 37 3f 20 d7 5e 3f
       -0.10354932 0.74665105 0.7169684 0.87047005
000300 c4 79 88 be 62 f4 b7 3e 70 5d 02 bf 8a b7 c6 be
       -0.266554 0.35928637 -0.50923824 -0.38811904
000310 49 64 02 bf 8f 68 02 bf c5 79 20 bf f9 5f 9b 3f
       -0.50934273 -0.50940794 -0.62685806 1.2138664
000320 d1 3f 37 3f c7 50 e7 3e 8a f9 dd bd 5a 34 f1 bd
       0.7158175 0.45178816 -0.108386114 -0.117775634
000330 28 04 02 bc 9a 25 47 bf 19 2c af bd 29 ad 4d 3f
       -0.007935561 -0.7779175 -0.08553333 0.80342346
000340 e1 70 29 3f 39 ad 2a bd 86 ad 35 be 48 15 bf 3e
       0.66187865 -0.041669104 -0.17741975 0.37320924
000350 c8 56 1f 3d 2e 37 a9 bf 93 f1 28 3f 9f 2d b0 3f
       0.03890112 -1.3219965 0.65993613 1.3763922
000360 73 f5 5e bd fa a8 8c 3f e9 8e dc bd 72 69 0c be
       -0.054433297 1.0989068 -0.107694454 -0.13712099
000370 81 55 76 be 45 bf 51 3d df d1 e3 bd 6a 49 29 bf
       -0.24056055 0.0512078 -0.11124014 -0.66127646
000380 9e 21 81 3c 6a 8a 61 3f 00 71 29 3f cf a1 3b bd
       0.0157631 0.8810183 0.6618805 -0.04580861
000390 0f 2c 03 bf 2c b6 8a 3f ac 2f eb bd 04 d5 53 3c
       -0.51239103 1.0836844 -0.11483702 0.012929205
0003a0 eb ec 6f 3f cc 01 33 3f c7 38 d4 3e 0b 4b ec 3e
       0.93720883 0.69924617 0.41449568 0.46151003
0003b0 b7 e6 82 be fc d4 88 3f 0e 66 97 3e 5e e8 c4 3e
       -0.25566646 1.0689998 0.2957005 0.38458532
0003c0 b6 98 02 bf b2 27 e8 be e7 28 d9 3e 96 bc bd be
       -0.5101427 -0.45342785 0.4241402 -0.37057942
0003d0 6f 7a 12 bd ba a9 ae 3e 7d 1e 3d 3f 74 f0 ed 3e
       -0.035761293 0.34113866 0.73874646 0.46472514
0003e0 97 f1 9d be 04 29 08 3f 3d 19 b8 be fd 56 98 3d
       -0.3084838 0.53187585 -0.35956755 0.07438467
0003f0 27 a0 09 3f 35 85 f1 3e 3f 52 b0 3e de 4d 21 3f
       0.5376 0.4717194 0.3443775 0.6300944

l1.bias f4 [8]
000000 63 7b 03 3f e4 60 02 3f 36 18 b9 3f 65 95 7c 3f
       0.5136015 0.50929093 1.4460514 0.9866546
000010 dd 8a 2f 3f a1 9a 28 3f b1 00 51 3f c6 88 55 3f
       0.68571264 0.65860945 0.8164168 0.83411825

l2.weight f4 [8, 8]
000000 5d 68 1d 3c 9e 7e 06 40 4c 5f 90 3f 7a 93 ab bf
       0.009607402 2.101478 1.1279082 -1.3404381
000010 41 64 30 3e bc c4 7b 3f 5c 42 d7 3d a2 3b 8c 3f
       0.17225744 0.9834707 0.10510704 1.0955698
000020 76 ec 31 bf 1d d7 f5 3f be 65 54 be f8 35 3b 3f
       -0.69501436 1.9206272 -0.20741937 0.73129225
000030 f7 04 fb 3f ff 44 08 40 f7 8d aa 3e 3a fe 9e bf
       1.961089 2.1292112 0.33311436 -1.2421334
000040 b3 45 1b 40 fd 0c 0c 3e 15 a1 91 3f 94 21 d9 be
       2.426129 0.1367683 1.1377283 -0.4240843
000050 28 bf 3e bf 74 43 a6 3f 99 ff 86 bf f4 72 d5 3f
       -0.7451043 1.2989335 -1.0546752 1.6675706
000060 7f 1a 16 3f cd 36 99 bf a9 20 86 bf 10 b0 66 3f
       0.5863418 -1.1969849 -1.0478717 0.901124
000070 9b af ae 3f 03 97 72 bf 37 e2 d7 3f e8 70 80 3f
       1.364734 -0.94761676 1.686591 1.0034456
000080 6e 37 4d 3e 62 79 33 3e 9e b8 3e be 46 fe 4d 3e
       0.20040676 0.17526773 -0.18625113 0.20116529
000090 00 7f 3a bd 8e b6 6c be 32 0d 2c be cc 81 9b be
       -0.045531273 -0.23116514 -0.16801909 -0.30372465
0000a0 c3 bd 93 bf 5d 46 14 3f 84 7e 04 40 e9 8e 43 3e
       -1.1542286 0.57919866 2.070222 0.19097485
0000b0 d2 8a 5f 3f 14 4c 56 bf c9 f3 9c 3f 26 78 63 be
       0.873212 -0.83709836 1.2261897 -0.22213802
0000c0 2c 09 8a bf 98 8e c9 bf 03 1b f0 3f e5 27 d4 3f
       -1.0784049 -1.5746641 1.8758243 1.6574675
0000d0 b5 97 b9 be a2 b8 e5 be ea 78 67 3f fc b2 e1 3f
       -0.36248556 -0.44867426 0.90418875 1.7632747
0000e0 fc d4 d6 3f 54 fc 09 be 38 bb cf bf 4d 5c d4 3f
       1.6783748 -0.13475162 -1.622901 1.6590668
0000f0 d1 e2 23 3f d5 4e 93 3f 7c dd d4 3f 45 f8 2e 3e
       0.6401797 1.1508433 1.6630092 0.17086895

l2.bias f4 [8]
000000 cc 47 f9 be b7 65 1b 3e 52 e8 04 3f 1b 02 a4 be
       -0.4868759 0.1517552 0.5191699 -0.32032856
000010 19 46 3e be d3 d1 1f 3f e9 12 61 3f e2 06 a8 be
       -0.18581428 0.6242954 0.8791948 -0.3281775

l3.weight f4 [32, 8]
000000 c1 ca 25 bf dd 32 07 c0 74 f1 06 bf 07 0b 2c 3f
       -0.647625 -2.1124794 -0.5271218 0.67204326
000010 6c dc d2 bd d7 7e 84 be 25 2e db 3e d4 f3 f1 3c
       -0.102959484 -0.2587802 0.42808643 0.029535212
000020 56 0a cc bf dd f7 ee be a8 45 98 bd f0 db ae 3e
       -1.5940654 -0.4667348 -0.07435161 0.34152174
000030 28 26 62 be 60 3a 97 bf 62 8a 80 3d 46 61 a4 3e
       -0.22084868 -1.181469 0.062763944 0.32105464
000040 78 34 31 c0 1a 3b ae be 8a bd 0b bf de 8c f8 3e
       -2.7688274 -0.34029466 -0.5458609 0.48544973
000050 98 c0 34 be 85 85 bf be c2 a8 83 bd 2a e9 b8 3e
       -0.17651594 -0.37406555 -0.064286724 0.3611539
000060 fd bc a2 be 4a ae 36 c0 ba 1b 41 3e e4 0d 2d bc
       -0.31784812 -2.8543878 0.18858233 -0.010562394
000070 10 ec b2 3d 68 ca bc bd b4 3d b1 3e c5 78 06 be
       0.087364316 -0.092182934 0.34617388 -0.13132007
000080 0f 21 fe bc 74 25 db be 4d 8a 52 be c2 57 59 3e
       -0.031021623 -0.42802012 -0.2056057 0.21224883
000090 88 bc c1 3d 07 de bd bf 60 98 0f bf ef e6 a8 3e
       0.094597876 -1.4833382 -0.5609188 0.32988688
0000a0 ba 22 08 be a1 6d 2b 3e a0 ea 15 c0 82 3a 9a be
       -0.13294497 0.16741039 -2.3424454 -0.30122763
0000b0 d5 ae 28 be b7 ed 0c 3e b6 84 a0 be 9a 22 12 bd
       -0.16472943 0.13762556 -0.3135125 -0.03567753
0000c0 e2 04 fb 3e 9a cc da bf 87 08 9f 3d 04 2f 1d bf
       0.49027163 -1.709369 0.07765298 -0.61399865
0000d0 b8 b8 b2 be 19 28 dd bd 02 89 31 bd 5c eb 83 be
       -0.34906554 -0.10798664 -0.04334355 -0.25765502
0000e0 90 aa 6f bf 4e a0 b3 3c d7 86 24 c0 a9 eb 8d 3e
       -0.9361963 0.021927025 -2.57073 0.27718857
0000f0 59 f2 84 be 53 02 dc be f6 21 1d 3d 7e 4a ab 3e
       -0.25966147 -0.42970523 0.038362466 0.3345527
000100 9a 41 87 3e 9c 19 f9 be 08 7a c0 bd cb 67 c9 bf
       0.26417238 -0.4865235 -0.093982756 -1.57348
000110 28 10 ab 3d c4 33 72 3e 35 a8 6c 3d b8 91 fe be
       0.08352691 0.2365256 0.057777602 -0.4972055
000120 a1 16 d5 3c d6 81 76 bf bd 4e 02 bf 35 a0 c7 be
       0.026011767 -0.96291864 -0.50901395 -0.38989416
000130 5e 5a 3a 3e cc 40 4c be a3 6e 26 3f a5 ca f3 bd
       0.18198535 -0.19946593 0.6501257 -0.11903886
000140 4d 4f 7c bf d8 09 12 bf 99 fe 43 bf e6 0b a5 3e
       -0.98558503 -0.5704627 -0.7656036 0.3223564
000150 13 e6 4e be b1 ff 25 be 06 fa 48 3e f4 5d 30 3e
       -0.20204954 -0.1621082 0.19626626 0.1722334
000160 5d b1 e8 3c 0f eb 56 bd 1e bd 09 be a5 66 65 bf
       0.028404886 -0.052470263 -0.13451049 -0.8960975
000170 ec ff fa 3d 15 17 6d 3d 99 64 b0 bf 9c b4 6f 3e
       0.122558445 0.05788334 -1.37807 0.23408741
000180 9a 46 27 3f 80 bc 90 3e 43 26 c9 be 7f 13 a2 bf
       0.65342104 0.28268814 -0.39287004 -1.26622
000190 4b 0a ac be d9 37 71 3e 8e 19 93 bf da c8 10 c0
       -0.33601603 0.2355646 -1.1492174 -2.262259
0001a0 1d bf 65 3e a5 6b b4 bf 44 35 12 3f 06 32 28 c0
       0.22436185 -1.409535 0.57112527 -2.6280532
0001b0 40 51 24 bd a6 4f 45 be cc a8 2f be 45 70 a3 bc
       -0.04011655 -0.19268665 -0.17154235 -0.019950995
0001c0 75 82 07 be 1f 3b 79 be 02 5c 30 3f c6 e4 09 c0
       -0.13233359 -0.24338959 0.6889039 -2.1545882
0001d0 77 32 9e 3e d8 5c 05 c0 14 65 54 bf d9 1a a7 3e
       0.30897877 -2.0837917 -0.8296673 0.3263767
0001e0 2d 25 29 3e 75 50 0a bf 35 52 84 3e fd 2c 2b c0
       0.16518088 -0.5402902 0.2584397 -2.6746209
0001f0 bc 1a c3 bd c0 b4 90 3e db 0c c3 3e f8 de 10 c0
       -0.095265836 0.282629 0.38095745 -2.263609
000200 72 ab 1b 3f fc d6 28 3e 75 47 89 be 09 b8 1f c0
       0.6080848 0.1648826 -0.2681233 -2.4956076
000210 00 b3 f5 3c 06 54 8a be 5a e2 a7 bf e8 21 81 be
       0.02999258 -0.2701723 -1.3115952 -0.2522118
000220 3c f1 1f bd 83 18 07 3f 10 f1 f6 bf ae 6e 20 bf
       -0.03904842 0.52771777 -1.9292316 -0.62668884
000230 f2 68 62 3e ff b8 40 3d 2a 98 d8 bf b0 cb a1 3c
       0.22110346 0.047051426 -1.6921437 0.019750446
000240 6a d6 ee 3e d5 f2 e4 bc 90 1d c3 3e 18 f4 e8 bf
       0.4664796 -0.027947823 0.38108492 -1.8199492
000250 58 df 39 3d cb 72 61 be 7a f4 3c bf 2c dd 04 c0
       0.045379013 -0.22016446 -0.7381054 -2.0759993
000260 8d 47 a5 be f7 b8 0a bd 5a 1c 9d 3d b1 3b f8 be
       -0.3228115 -0.033867802 0.07671423 -0.4848304
000270 86 de 31 3e b0 78 ad bf 0d f5 0d c0 6a 49 1c 3f
       0.17370042 -1.3552456 -2.2180817 0.6104952
000280 b8 7c dd 3b 4c 07 18 3f 76 56 8b bf bf e1 01 c0
       0.0067592524 0.59386134 -1.0885761 -2.0294034
000290 f2 18 0e 3e 9a 9d 10 3f 00 89 0c c0 20 af 36 bf
       0.13876703 0.5649048 -2.1958618 -0.7136097
0002a0 89 05 58 bd 4c 69 dc be 35 98 ab 3e 13 d0 93 bf
       -0.052739654 -0.43049085 0.33514562 -1.1547874
0002b0 03 f4 0e be f7 ea 0b bf 0c f9 75 be 11 5f dd 3d
       -0.1396027 -0.546554 -0.24020785 0.10809148
0002c0 57 2c cb 3d c6 37 12 c0 40 56 20 3e b3 bd 3f bf
       0.099205665 -2.2846541 0.15657902 -0.74898833
0002d0 b8 4e 9d bd 4e 82 a2 3e be 77 63 3f 5a 49 d5 bf
       -0.0768103 0.3174004 0.8885459 -1.666301
0002e0 7c b1 75 bf 19 a8 a5 bf 01 ef 40 3f ce f6 8a bf
       -0.95973945 -1.2941924 0.7536469 -1.0856569
0002f0 9a 55 1c 3e f4 eb e1 bf 1b ab f8 3e cf 71 01 3f
       0.1526703 -1.7650132 0.48568043 0.50564283
000300 0c 09 13 be 2a 2d fd 3e 80 2e 8c be 11 67 3a c0
       -0.1435892 0.4944852 -0.27379227 -2.9125407
000310 b9 e9 61 be a7 78 40 3d 36 3f 24 3d c7 f2 2c bf
       -0.22061814 0.046990063 0.040099345 -0.6755795
000320 a3 c3 58 bf 2e 07 a0 3e cd a3 e9 be 5b 3b 33 bf
       -0.8467352 0.31255478 -0.45632783 -0.70012444
000330 f5 00 80 3e 18 f4 b5 be 6c a0 4a bc dc de 9f 3e
       0.2500073 -0.3553779 -0.012367349 0.31224716
000340 25 c5 3e be f8 ba cd 3e f1 e5 b0 be be 29 2d c0
       -0.18629892 0.40181708 -0.3455043 -2.7056727
000350 50 3f ab bc bb ca 92 be 02 40 17 c0 64 7a 18 3f
       -0.020904213 -0.28670296 -2.3632817 0.59561753
000360 8d e1 c3 3e 1f 40 4d c0 a9 ed 87 3f fa 4b 10 c0
       0.3825802 -3.2070386 1.0619403 -2.2546372
000370 0c 50 fb 3d 9b dc 54 bc 6f 35 61 3e 91 27 2c c0
       0.12271127 -0.01299205 0.2199304 -2.689915
000380 03 d9 06 c0 7d 98 8d bf f5 89 fe bf 3e 83 91 3e
       -2.1069953 -1.1062161 -1.9885851 0.28420442
000390 ec 4b b1 bd cc 3f 2b 3f ed 7b 72 3f 46 87 30 be
       -0.08657059 0.6689422 0.94720346 -0.17239103
0003a0 84 2e d6 be a8 2e c0 3e 00 90 9b bf d2 c1 d5 3d
       -0.41832364 0.37535596 -1.215332 0.10437359
0003b0 24 b2 be bd f0 1a 0c bf a0 13 a8 bf d0 71 f2 3e
       -0.093113214 -0.54728603 -1.3130989 0.47352457
0003c0 ac 37 dd bf f8 e6 02 c0 0a b3 f1 be 1c 67 0b c0
       -1.7282615 -2.0453472 -0.47206908 -2.1781683
0003d0 30 4e 45 3d f9 ac 97 3f 8c 57 9b 3f 83 4e ea bf
       0.04817027 1.1849662 1.2136092 -1.830521
0003e0 1b 21 7d bd d0 d9 dd be 1c ba 36 bf f6 88 27 bf
       -0.06179915 -0.4333024 -0.7137773 -0.6544336
0003f0 55 4a 40 be 5a a6 56 3f 40 8d 04 3e fc 4d a0 bf
       -0.18778355 0.8384758 0.12944508 -1.2523799

l3.bias f4 [32]
000000 47 28 db bd 67 2e 2d be 34 2a 6b be 0c b8 2f be
       -0.10701042 -0.16912232 -0.22965318 -0.17160052
000010 7a 9f ff bd 37 b2 6e be 30 c5 ef be 17 f7 0a be
       -0.124815896 -0.23310171 -0.4683013 -0.1357082
000020 a7 d7 4d bf 17 ca 21 be 59 80 88 bd 9c 47 88 3e
       -0.80407184 -0.15799747 -0.066651054 0.26617134
000030 66 ec 8b bc 71 20 58 3e 81 9d 29 3e 37 02 b6 be
       -0.017080497 0.21106125 0.16563989 -0.35548565
000040 16 cc 67 be a0 17 cf be ff 15 ef bc d4 45 9a be
       -0.22636446 -0.40447712 -0.029185293 -0.301314
000050 20 03 c4 3e 6d f5 89 be 17 aa 04 bf 23 95 fd 3c
       0.38283634 -0.26945058 -0.51822037 0.030954903
000060 7a cc 53 3d 6e cd 63 3e a9 09 f5 3e bb 53 87 3f
       0.051708676 0.22246334 0.47858933 1.0572428
000070 dc 36 2d 3f 6a e0 ef be 6e 7a 0a 3f c7 0f 52 3f
       0.67661834 -0.46850902 0.5409306 0.82055324
